mountain_car_continuous/DDPG/actor.pth (torch, 269684 bytes, 5 tensors)

body.net.0.weight f4 [256, 2]
00000000: cfd4 693f 01e8 7d3e fbf3 2a3e 6d1e 1840
00000010: d02a 0d3b 4254 97bd 3f39 0c3f 1253 d53f
00000020: 7d73 443e 487c 2b3f e7f7 753e fa54 04be
00000030: da9a d63c 0820 ecbe b666 0a3f a1e3 513c
00000040: 1866 f83d 018d 1a40 2a77 2c3e 8fed 0940
00000050: a773 1a3f b8fe d83f 170e e83e a6d1 debf
00000060: ea42 45bd 9be8 e0bb e9d4 1b3f 1c65 c33f
00000070: 1044 893f 100d 113f 1fc2 98bf e3af a7bf
00000080: a55b e63e 0f6a ea3f 1d04 293f a37d 7e3c
00000090: ce25 4e3f 9a58 d43f 76e7 913e 2922 073f
000000a0: 4a49 cd3e d995 01be 1872 323f 4ca0 8f3f
000000b0: 0e0e adbd ff3c 643c c891 233e 6e2b 1abd
000000c0: f756 d93e b28b c43f e533 503f 5974 0340
000000d0: 4470 123f 827b bc3f 4310 0e3f ba9c 743f
000000e0: 2596 8cbe fce5 afbe 6911 a93e c87e ec3e
000000f0: 7e94 343f 1fc4 9f3f 86ee 2a3f ca40 e03f
00000100: a307 613e 1583 29bf 45df 153f 835a 39be
00000110: 5912 12be 7436 773f f639 953f 4ea1 173f
00000120: 123d 9f3e 9857 523e 4ec9 e43e f5fd a83f
00000130: 85af 5a3e 0b3a 0f3f 9069 30be 6293 943e
00000140: 0440 cebd 54d3 0abf ef2f 77be e73c dabd
00000150: ee7c 9fbe 0af7 203f e55b 073f 2bad f33f
00000160: dbc8 4e3f 8e9c da3f 4857 b7bd 5561 3cc0
00000170: 605b 25bf c812 6640 3400 4f3e 6571 f43f
00000180: c80d a9bd d694 c0bf d51b 22be 57df 22bf
00000190: 7680 f7bb a9f8 4d40 0f16 483f 682f 0240
000001a0: 0c26 a43f c6e8 c43d 7f41 013f 9625 c63f
000001b0: 46d0 253f 85e4 42bd 8fcc ff3e 724d 1f40
000001c0: e578 02bb 25ca e73d 9fcf 1d3f 6304 8ebf
000001d0: 64d4 8c3e 4e0e a5be 7b32 50be be2e 0f3f
000001e0: f6e1 29be 546c 66be 7449 acbe 39c7 18bf
000001f0: ef1c e73e d252 2fbf 8a17 0c3e e030 0040
00000200: 3162 58be 4884 66be 7690 4e3f ab7d 9b3f
00000210: da45 c53e f383 cfbe 1343 9abd 4013 0c3f
00000220: 6a16 ffbe b3d2 6940 3bf6 e3bd 0ecf 9d3e
00000230: e955 e43e 2fe6 db3a 8c74 31be 2d21 aebf
00000240: 5601 d93e 46d8 1cbf e2b4 83be ed65 e5bb
00000250: 0438 7d3f b996 09bf f4f4 a53e 6d48 a13f
00000260: c9a2 1e3f aeec d33f 4e92 8b3e 47c0 503e
00000270: 07e9 09bd caa4 8cbf eab1 c83e ec70 dabe
00000280: 3ebb 54be 2cb6 8a3e 43a4 5ebe c339 7dc0
00000290: 7649 c5bd 18c5 84c0 a783 ffbe 7adf a3bd
000002a0: 7bea 733e c55c e43f 45c2 ee3e 508f 983f
000002b0: 0fea 98be ea04 553e 5b8b 0c3f 845c 23bf
000002c0: 660f 18be a5ca a83e 35f5 c5be 4af8 6b40
000002d0: 3435 dc3d 24f3 b9be 1bd8 cfbd ef91 773e
000002e0: ac7a 06bd 5b60 0cbf f68e 7e39 ef6e b83c
000002f0: 0eea 2c3e e491 0ebe 98d4 323f d5a5 5c3e
00000300: e9e9 043f ec9b 0ebc 0129 123f ef56 be3f
00000310: 539d 053f 9b56 ce3f 5733 323f 0e9a c5bf
00000320: 6286 613f d799 1f40 f700 42be c322 00c0
00000330: 835e b73d 5b16 e73f 9cc3 483f 03cd 02c0
00000340: 8442 143f 4814 7b3f 744c 9fbe c177 80be
00000350: a800 50bf 528c 28bf c19f 1e3f 6ea3 2f3f
00000360: ca3f 463f f360 893f 879f 94be 19f7 1fbe
00000370: a9a6 063f 660a 763e 47a3 f63e 17fc 8ebd
00000380: 6714 903f 5b66 8d3f d3e3 3c3e 9f84 2d40
00000390: dfa5 01bf c643 1d3e 8b53 753e 17ea fe3e
000003a0: 3d6a 433f 3aa5 0540 462a 24bd bf1c 533e
000003b0: 9b35 4b3f cc73 aebf cbce 2dbf 3be5 f53f
000003c0: bbf2 2ebb 2158 c5bd 0e0c 91be ac72 08bf
000003d0: c6d9 bcbe 36da c3bd f81f 193f 6810 d43f
000003e0: e14e 993e ddd5 303f ab2a 20bf bfc8 1fc0
000003f0: b57a b5be 5b71 c43c a5fb 3b3e 6505 0840
0.91340345 0.24795534 0.16694634 2.376857 0.002154041 -0.07389118 0.5477485 1.6665976
0.1918468 0.66986513 0.24020348 -0.12923041 0.026196886 -0.46118188 0.54062974 0.012810619
0.12128848 2.4148562 0.16842332 2.1551244 0.6033272 1.6952734 0.4532325 -1.740773
-0.048159517 -0.006863666 0.6087175 1.5265231 1.0723896 0.56660557 -1.1934241 -1.3100551
0.44991794 1.8313617 0.660219 0.015532884 0.80526435 1.6589539 0.28496903 0.527865
0.40094978 -0.12654819 0.69705343 1.1220794 -0.08449946 0.013930558 0.1597358 -0.037639074
0.4244916 1.5355132 0.81329185 2.0539763 0.57202554 1.4725192 0.55493563 0.95551646
-0.274583 -0.34355152 0.33021095 0.46190476 0.7053908 1.2481726 0.6677021 1.7519772
0.2197557 -0.6621564 0.5854381 -0.18100934 -0.14264812 0.96567464 1.1658313 0.59230506
0.3110128 0.20541227 0.44684833 1.3202502 0.21356018 0.5594794 -0.17227769 0.29018694
-0.10070804 -0.5422871 -0.24139379 -0.106561475 -0.3115 0.6287695 0.52874595 1.9037222
0.8077523 1.7079027 -0.089521945 -2.9434407 -0.6459255 3.5948963 0.20214921 1.9097105
-0.08254582 -1.5045421 -0.1583093 -0.6362204 -0.0075531555 3.218302 0.7815866 2.0341434
1.2824111 0.096147105 0.50490564 1.548022 0.64770925 -0.047581214 0.49960753 2.489102
-0.0019908485 0.11317853 0.6164493 -1.1095089 0.2750579 -0.32237476 -0.20331757 0.559307
-0.16590104 -0.22502261 -0.3364979 -0.5967899 0.45139262 -0.6848575 0.13680854 2.002983
-0.21131207 -0.22511399 0.8068918 1.2147726 0.38529855 -0.40530357 -0.07532325 0.54716873
-0.49821788 3.653485 -0.11130949 0.30822033 0.44596794 0.0016776974 -0.17329615 -1.3603874
0.42383832 -0.6126751 -0.2572394 -0.007000676 0.989136 -0.5374561 0.32413447 1.2600228
0.6196714 1.6556604 0.2726006 0.20385848 -0.033669498 -1.098779 0.39198238 -0.42664278
-0.20774552 0.2709211 -0.21742348 -3.9566505 -0.09633152 -4.1490593 -0.4990513 -0.08001609
0.23819916 1.7840811 0.4663259 1.1918736 -0.29866073 0.20802656 0.5490014 -0.6381304
-0.14849624 0.32967106 -0.3866364 3.6870294 0.10752335 -0.36318314 -0.10148641 0.24176763
-0.032831833 -0.54834527 0.00024276585 0.022513835 0.1688616 -0.1392284 0.6985564 0.21547635
0.5191942 -0.008704167 0.57093817 1.487028 0.5219318 1.612018 0.6960959 -1.5437639
0.88095677 2.4937646 -0.1894568 -2.0021217 0.089535736 1.8053697 0.78423476 -2.043763
0.57913995 0.9807782 -0.31113017 -0.25091365 -0.81251 -0.6583911 0.61962515 0.6860875
0.77441084 1.0732712 -0.2902796 -0.15621604 0.52598053 0.24027404 0.48171446 -0.06981676
1.1256226 1.1046861 0.18446283 2.7112195 -0.50643724 0.15357885 0.2395765 0.4978797
0.7633398 2.0882096 -0.040079378 0.20616435 0.7937867 -1.3629088 -0.67893666 1.921058
-0.0026694972 -0.0963595 -0.2832951 -0.53299975 -0.36884898 -0.09563105 0.59814405 1.6567507
0.29942992 0.6907633 -0.62565106 -2.4966276 -0.3544518 0.023979833 0.18357714 2.1253293

body.net.0.bias f4 [256]
00000000: 1caf 52be 2f5a f0bc 105b 24bd c06a 5abe
00000010: 6d79 78be 4338 03bf b149 d0bc 8c62 27bf
00000020: 2058 30bd 3ee7 a8bb 794e 56be bad9 4abe
00000030: f819 87bd 89f6 4fbe 5e3c 48be 5c19 d7be
00000040: 689b 4fbe c0c6 2abf 4c50 97be c4c2 42be
00000050: c85a 38be 5e80 77be dde5 2fbe 2e77 37be
00000060: c9ab 1dbe c8c0 8abe 01c1 40be b835 1cbe
00000070: 1ccd 32bf ff9e a3be 4682 7ebe 2c96 84be
00000080: 8041 21bf 2258 30bf fa98 51be ee38 55be
00000090: 4dad febe 6a3e 31be 36b2 04bf 7c61 c7be
000000a0: 6595 81be 6440 0fbf e600 c3be e873 60be
000000b0: bd46 80be 7cde 96be 03c6 8cbd cf13 50be
000000c0: 4fdf 69be 872e e7be 066b 523d 0493 85be
000000d0: 89ca 39be a3e0 43be 0135 02be f09d 77be
000000e0: 0de8 0cbf 81ea 71be 46bb e7be 2688 98be
000000f0: 569a c2be 7814 ffbe 0d82 39be 5c1e 45be
00000100: a762 31bf 85fa 85be e8a4 85be 9dd1 c8be
00000110: 7d46 57bd 712b e8be c9ab 1ebf 27e9 95be
00000120: 26e0 7dbe c1ed 12bf 92bd 273c 7743 80be
00000130: bde7 56be d48c 67be 6972 e9bd 820e e5be
00000140: 8b37 d4be 51e6 72be 0e5b ea3c 98b8 21bf
00000150: 5eb1 55be 392d 35be 9436 f4be fda9 a7be
00000160: 7ebb ecbe f9b4 94bd 07a9 b7bd d679 a1be
00000170: a168 c7bd bbec 49be 4679 b4be 78a3 08bf
00000180: 0708 03bf 2dbd 44be c89a a3be b18b d7bd
00000190: 5a36 9bbe 6ff5 a4be 9a24 28be d6a3 193f
000001a0: 396b d43e 877f c6be 51f5 0abf 54a4 1bbf
000001b0: eb7d 88be 324c b7be e58b 18bf f08b ecbe
000001c0: ed31 66be 9850 98ba 0de4 1dbf c365 26bf
000001d0: e333 84be 7c4b 2cbe abe2 3a3e 8af2 d5bb
000001e0: d178 bfbc e496 dbbe f956 e6be 0661 52be
000001f0: c1ca ebbe 5866 35be a73b 9abe 22dc b73c
00000200: 21b8 5fbe 2162 60be 161d 79be cb4f 4ebe
00000210: ec7a 283d d9c9 fabe b97e 72be f7f3 8fbd
00000220: e64e 24bf 317d 21bf ad1a 2ebe a6db 7abe
00000230: b7a8 e7be 3de6 fc3c 0b68 e4bd 7822 da3d
00000240: e441 dfbe 3a23 bfbe 89b9 f23e f0a8 943e
00000250: ba56 83be a971 77be 4da3 7ebd d90a 72be
00000260: 1a3b 31bf bb47 5ebe 177f 58be 9ad6 4dbe
00000270: 0b3e b53d 9b28 1a3e 1317 23bf eb11 cdbd
00000280: 959b 2bbf ba97 7dbe 55d7 b6bd 197a 11be
00000290: 0a13 c3be 8fd9 bdbe 5098 8bbe 5537 1bbe
000002a0: e912 f7be 4467 d8be cfdb 1ebf 62d5 c5be
000002b0: 87b2 8e3d 6187 65be 797b 8fbe d703 e2be
000002c0: e980 82be 3b9a 95be 0b1c 83be cdd0 e1bd
000002d0: 5635 1abf e317 b53d 2b98 9abd b20d 0cbf
000002e0: 09a2 5ebe 4d62 823e 1ce5 0cbf b47d 32bf
000002f0: 8742 f3bd 36ac 8dbe 5f8e f2be 8003 e03e
00000300: e22a d8be b3de 5abe 7042 30bf 6575 32be
00000310: 3550 49be e36e 0dbf 09d7 afbe e50b 11bf
00000320: 2e86 61be 6363 5abe 3578 89be d4a8 ec3d
00000330: f726 b23d abab 2ebf e549 02bf 5a65 22bf
00000340: 0269 4bbd 3948 85be f883 e0be dc14 1abf
00000350: 4592 1ebf 1cf8 e4be 9929 0fbf f931 443e
00000360: aa4f 49be 79f0 56be 383d 1abf dd9b f2bd
00000370: 0ad6 883e d2ab 2d3c 9149 07be 5ced 01bf
00000380: 7da0 e53d da7b c9bc 546a 11bf d847 c7be
00000390: 7d64 58be c962 8abe 0ca1 18bf 2cae 09bf
000003a0: 70b5 bdbd 94e5 8fbe 7678 223e e8d2 c5bd
000003b0: 7df5 3c3d ecfc 39be 06ef 4fbe 9399 a0be
000003c0: 67d7 a2be edf0 2abe bbb1 56be 4d4f 94be
000003d0: 3fce c7be 3eef 423e 87e6 983d 694f 38be
000003e0: 880f 1d3c 46e4 b2be a357 e1bc 2270 55be
000003f0: 1ce3 033d dd9b 6ebd 14e9 07be afa6 98bd
-0.20574611 -0.029339878 -0.040125906 -0.21329784 -0.2426507 -0.51257724 -0.025425764 -0.65384746
-0.043052793 -0.0051545193 -0.20928372 -0.19809619 -0.0659675 -0.2030889 -0.19554278 -0.42011535
-0.20274127 -0.6670952 -0.2955345 -0.1901961 -0.1800338 -0.24170062 -0.1717753 -0.17916557
-0.15397562 -0.27100205 -0.18823625 -0.15254867 -0.6984422 -0.31957242 -0.24854383 -0.25895822
-0.6299057 -0.6888448 -0.20468512 -0.20822498 -0.49741593 -0.17308965 -0.5183443 -0.38941562
-0.2530929 -0.5595763 -0.38086623 -0.21919215 -0.2505397 -0.29466617 -0.06873705 -0.20320056
-0.22839092 -0.45152685 0.051371597 -0.26088727 -0.18143667 -0.19128661 -0.12715532 -0.24181342
-0.5504158 -0.23624612 -0.45260066 -0.29791373 -0.38008374 -0.49820304 -0.18116017 -0.19249862
-0.69291157 -0.26167694 -0.26102376 -0.39222422 -0.052557457 -0.45345643 -0.61980873 -0.29279444
-0.24792537 -0.57394034 0.010238068 -0.25051472 -0.20986839 -0.22612315 -0.11398775 -0.4473763
-0.41448626 -0.23720671 0.028607871 -0.6317229 -0.20868441 -0.17693032 -0.4769789 -0.32746878
-0.46236795 -0.0726108 -0.08967786 -0.31538266 -0.09736753 -0.19719212 -0.35248774 -0.53374434
-0.51184124 -0.1921279 -0.31954026 -0.10524691 -0.30314904 -0.322185 -0.16420212 0.6001562
0.41488054 -0.3876917 -0.54280573 -0.6079762 -0.26658568 -0.3580032 -0.5958846 -0.46200514
-0.22479983 -0.0011620698 -0.616761 -0.64999026 -0.25820836 -0.1682567 0.1825053 -0.006529157
-0.02337304 -0.42888558 -0.4498823 -0.20544824 -0.46053126 -0.17714822 -0.30123636 0.022443835
-0.21847583 -0.21912433 -0.24327502 -0.20147626 0.041132852 -0.48982123 -0.23681153 -0.070289545
-0.6418289 -0.6308165 -0.17002364 -0.24497852 -0.45245907 0.030871505 -0.11152657 0.10651106
-0.43604958 -0.37331563 0.47407177 0.2903514 -0.25652105 -0.24164452 -0.062167455 -0.2363695
-0.69230807 -0.2170705 -0.21142231 -0.20101395 0.088497244 0.15054552 -0.63707083 -0.10013183
-0.67034274 -0.2476491 -0.0892779 -0.14206733 -0.38100463 -0.37080047 -0.27264643 -0.15157826
-0.48256615 -0.42266285 -0.6205415 -0.3863936 0.06967645 -0.22414924 -0.2802389 -0.44143555
-0.25488976 -0.2921923 -0.25607333 -0.11026154 -0.60237634 0.08842447 -0.07548555 -0.547084
-0.21741499 0.25465623 -0.55037093 -0.6972306 -0.118779235 -0.2767045 -0.47374246 0.4375267
-0.42220217 -0.21374016 -0.68851376 -0.17427595 -0.19659503 -0.55247325 -0.34343746 -0.56658775
-0.22023842 -0.21326976 -0.26849523 0.11555639 0.08698838 -0.68230695 -0.50894004 -0.634359
-0.04966069 -0.26031664 -0.43850684 -0.6018808 -0.6194194 -0.44720542 -0.5592285 0.19159688
-0.19659296 -0.2099017 -0.6024966 -0.11846135 0.267258 0.010600047 -0.13211657 -0.50752807
0.11212251 -0.02459519 -0.5680287 -0.38922 -0.21132083 -0.27028492 -0.5962074 -0.5378139
-0.09263122 -0.28104842 0.15866265 -0.09659368 0.046132553 -0.18162888 -0.20306024 -0.31367168
-0.31804964 -0.16693468 -0.20966236 -0.28966752 -0.3902454 0.19036576 0.074658446 -0.17999043
0.0095862225 -0.34939784 -0.027507609 -0.20843557 0.03219901 -0.05825411 -0.13272506 -0.07453667

body.net.2.weight f4 [256, 256]
00000000: a0b3 eabd c070 6e3c 8a5d 493d 0893 bf3b
00000010: 80e0 0dba ac1e 283d efb2 83bd a426 adbc
00000020: 988e ebbd 499d 343c 70f9 c43c e5f9 e1bd
00000030: c837 08bb efb6 6bbc f602 ef3c 86dc a9bd
00000040: 7cad 583d 4c6d 40bd 0288 4dbb 7c5e 073d
00000050: 003a 8cbc a46c 5fbd 8e12 973b 22a6 743d
00000060: 8743 7ebb a634 c43c c67e b0bc ff15 9dbc
00000070: 3e0b 223d 66fc 69bd f11f dbbc 7255 403d
00000080: dce6 6bbd 58c0 c7bc ab4c 383d 6746 3f3b
00000090: 00fa 54bc 1054 3b3d 0a8a 203d c292 49bd
000000a0: 0499 a43c c01a 86ba 58d6 e43c 6288 1b3d
000000b0: a318 febc 2879 2bbd ceca 89bd 1bcb 4ebc
000000c0: 5c81 43bd 00d8 be3b d2d8 f83c 7054 403d
000000d0: 66c8 8c3c 67ae 233d bb9f d3bc aaff 3a3d
000000e0: 34b0 743d 8169 a2bd feb6 263d f810 22bd
000000f0: ba41 2dbd 2065 d3bb 7d37 c63c 09f8 37bb
00000100: 1863 9abc 00a6 82b9 e84d a4bc 3833 763c
00000110: f054 bf3b 281d 233c 0cef a63c 5ae2 06bb
00000120: d47b 2ebd 5847 3b3d 89a6 2ebb 323e 41be
00000130: c1a9 57bd 166b 06bd 4423 bcbd 90b1 233d
00000140: 701e c73c c77d a53c 45bd c9bd 595c 2fbd
00000150: 8c2e 793d 7945 81bd 0a38 27bd fcc3 593d
00000160: 2043 e83b 2311 85bd 4a8e 563d 4a20 323d
00000170: a2b7 81bd 38e1 3f3c f037 57bc 9064 e73b
00000180: acfb e43c 95d3 473b 630d 413c 1eb3 abbb
00000190: 04e2 63bd 4943 b43c 29d3 b53c 0217 22bd
000001a0: 8bc6 0cbd 4af4 4c3d 874e 97be 8637 663d
000001b0: 998e 0ebd 12d0 42be 3641 64bd 5426 f2bc
000001c0: fcab fc3c 21d1 acbc ba94 8cbd f4e3 7b3d
000001d0: 55df 173d a8a9 45bd 226d a3bd 4313 bd3e
000001e0: 6263 4d3d f0bd 663c 34da 98ba 7793 16bd
000001f0: 6085 a6bb adf4 86bd 3273 1dbd bd4a 5abe
00000200: 83c4 0a3d 002c c2bb 4087 cebc ac14 003d
00000210: 6885 97bd f9d2 093c 3964 92bd 332c 94be
00000220: 9675 22bd e08b c7bb 5f7c f03a 6138 5ebd
00000230: 61c8 02bf 7c56 e1bc b41a 063d 6945 043d
00000240: d4ce 283c 464d 7ebd d9cb 0dbd 0201 b5bd
00000250: 1626 7e3d f353 9ebd 596a 43bd 9066 3c3d
00000260: f438 d5bd d1d0 59be d1cb ae3c c2f9 1dbd
00000270: 44ea 2a3d 5b1e fbbd a24a 643d 4042 453c
00000280: ac76 04bd 0e55 153d 60d5 ccbb a874 60bd
00000290: 4094 203d 2042 bbbb 207b 04bb 3601 02bd
000002a0: 209c b5bc ac36 563c 10d0 4ebd 9870 04bc
000002b0: 852e 63bd 7097 c8bb 39ce c9bd b4cf f13c
000002c0: ff30 14bd 5474 693d 2141 2bbc b7a1 cd3e
000002d0: b0fb bd3b 4101 c7bd 8dca b138 c876 df3c
000002e0: dcdf d5bc 8d49 c1bd 202a 643d ec84 c4bc
000002f0: 2ac7 ed3c a51c b3bc 33b5 453d df60 493a
00000300: f005 1bbc 7f97 45bd a8bf 153c d048 b43c
00000310: 6802 20bd f8ef 44bc 1677 0cbd c290 403d
00000320: b7b1 e13c c276 e6bc 0fca 173d 982d 8ebc
00000330: a669 733c f80d 70bc 93c3 a23c 25b1 afbd
00000340: 76dc 41bc 6ee5 513d 1c41 44bd 27b1 4a3e
00000350: 7282 0ebd ae9e 9fbd 785e b73c ea01 d9bc
00000360: 2263 86bd e164 39bd 7c79 f9bc d623 3ebd
00000370: 05b4 b53c 42b4 63bd 0607 133c b18f a0bb
00000380: b838 1fbe 2786 d1bc 34ab 9dbc b291 47bd
00000390: 52c5 ff3c 1628 113a 886f 51bd 703a 31bc
000003a0: 8d20 dc3c a01b 173c 7a2d 85be daf6 22bd
000003b0: 08c0 853c 0ad7 52bd 25d3 35ba d813 053d
000003c0: 4eaf 1c3d dc89 81bc f417 793b 78d2 293c
000003d0: 4004 9bbc c42f 5bbe bac0 1abe 18da 503d
000003e0: 287a 383c b9fd d9bb 1a92 fc3b c256 613b
000003f0: 8d7c 83bd 6f56 a3bd e06f 733c ab2c 05bc
-0.11460042 0.014553249 0.04916147 0.005846385 -0.0005412176 0.041044876 -0.06430613 -0.02113659
-0.11501807 0.011023828 0.024044722 -0.11033992 -0.0020785201 -0.0143868765 0.029176217 -0.08294015
0.052899823 -0.046979234 -0.0031361585 0.03304909 -0.0171175 -0.054546967 0.004610366 0.05972875
-0.0038797574 0.023950886 -0.021544825 -0.019175528 0.039561503 -0.05712547 -0.02674863 0.046956487
-0.05759321 -0.024383709 0.04499499 0.002918625 -0.012999058 0.045734465 0.039194144 -0.049212225
0.020092495 -0.0010231361 0.027934238 0.03797186 -0.031017607 -0.04186359 -0.06728135 -0.012621666
-0.04773079 0.005824089 0.030376825 0.046955526 0.017185401 0.039961245 -0.025833001 0.045653977
0.059738353 -0.079302795 0.04070186 -0.039566964 -0.04229901 -0.006451264 0.02419638 -0.0028071424
-0.01884608 -0.00024919212 -0.02005668 0.01502686 0.0058389828 0.009955682 0.020377658 -0.0020581693
-0.04259856 0.045722336 -0.0026649556 -0.18871382 -0.052652124 -0.03281697 -0.09186414 0.03996426
0.024306506 0.020201577 -0.098505534 -0.04281268 0.060835406 -0.06312079 -0.040824927 0.05316542
0.00708808 -0.06497409 0.05238179 0.043487824 -0.06333853 0.011711411 -0.013135895 0.0070615485
0.027952038 0.0030491103 0.011782977 -0.0052398583 -0.055635467 0.02200474 0.022195416 -0.039572723
-0.034369033 0.05003766 -0.295521 0.056205295 -0.03480396 -0.19024685 -0.055726252 -0.029559292
0.030843727 -0.021095814 -0.06864305 0.06149669 0.03707822 -0.0482575 -0.079798 0.36928758
0.050143607 0.014083371 -0.0011661709 -0.036761727 -0.0050818175 -0.06589637 -0.038439937 -0.21317573
0.033878814 -0.0059256554 -0.025210977 0.031269714 -0.07398492 0.008412116 -0.07148022 -0.2893997
-0.03966292 -0.0060896724 0.0018347612 -0.054252986 -0.51087004 -0.02750706 0.03274031 0.032292757
0.010303218 -0.062085412 -0.034618232 -0.08838083 0.06204804 -0.07730856 -0.047708843 0.04599625
-0.104112536 -0.21271063 0.021337422 -0.038568266 0.04172732 -0.12261649 0.055735238 0.012039721
-0.032339737 0.036458068 -0.006251022 -0.054798752 0.039203882 -0.00571467 -0.002021499 -0.031739436
-0.022169173 0.013074558 -0.050491393 -0.008083485 -0.055464286 -0.0061215684 -0.09853787 0.029517986
-0.03617954 0.056995705 -0.01045254 0.4016244 0.0057978258 -0.09717036 8.477746e-05 0.027278319
-0.026107721 -0.09437857 0.055704236 -0.023989163 0.029025633 -0.021864245 0.04826851 0.00076819764
-0.009461865 -0.04824018 0.009139933 0.022007376 -0.039064795 -0.012020104 -0.034293257 0.04701305
0.027550561 -0.0281328 0.037057932 -0.017355725 0.0148567315 -0.014651768 0.019868648 -0.085787095
-0.011832347 0.05124419 -0.047913656 0.19794141 -0.03479237 -0.077939376 0.022383913 -0.02649017
-0.06561877 -0.04526222 -0.030453436 -0.046420895 0.022180567 -0.05559183 0.0089738425 -0.004899942
-0.1554898 -0.025576664 -0.019246675 -0.04872293 0.03122202 0.00055372843 -0.051131755 -0.010817155
0.02687099 0.009222895 -0.26011258 -0.039786197 0.01632692 -0.05147461 -0.0006936065 0.032489628
0.03825312 -0.015812807 0.0038008662 0.010365121 -0.018922925 -0.2140494 -0.15112582 0.05098924
0.011259593 -0.0066525606 0.0077078464 0.0034383987 -0.064202406 -0.0797547 0.014858216 -0.008128325

body.net.2.bias f4 [256]
00000000: 1379 4fbc 00ee 8fbc 0b77 1ebc 52dc 29bd
00000010: 23a0 33bd f869 1dbc 6f2f 88bd be97 96bd
00000020: 614b 1d3b c62f 55bc 1376 8cbc bd04 a0bd
00000030: 1e21 55bc 35ad 00bc fea3 12bd e7f4 46bd
00000040: 90a4 43bd 3d26 333e bef9 9bbd 593b aa3d
00000050: 6ef0 ddbd e557 8a3c 118c fcbd 0a18 6ebd
00000060: 9b2a 823b 3a31 81bd 7369 f7bc a986 9abc
00000070: 8cfb 89bd 1457 2f3e 552b 643d 5d29 4fbd
00000080: 71e1 2abc 949c 43bd 5f49 f9bc 6d56 88bd
00000090: ec58 3bbd 78ae 97bd f821 a1bc 68af 64bd
000000a0: 0634 54bc 8c4b 5cbd 9b70 c3bc c079 95bc
000000b0: a4cf 93be d7a5 803c e477 78bb 444f bcbd
000000c0: 5c97 2d3e a68e 8bbb ef72 d8bb 8d42 63bd
000000d0: e2e3 5dbd c225 3b3c 49b4 02be 1a22 d2bd
000000e0: 22d4 ecbc 4ce7 473c c2c8 abbd 98b1 cebc
000000f0: 5d67 82bd 7205 62bd f50f 78bd 77de 8cbd
00000100: 8d4c 09be e167 a4bd 568f a0bd 975b 59bc
00000110: 63d8 8a3c 0c6e 593e 8ec5 2fbd eaf2 1fbc
00000120: 79f1 7abd dd8a 343c 3edb 14bd d406 bdbc
00000130: b08b a43e e140 c53b 8f89 19bc c2ac 04bd
00000140: ff9e b9bb 21c4 7fbd bf7a 71bd cf99 76be
00000150: 5a6b 1ebd 561f 8dbc aeb3 afbc 3ce7 a7bc
00000160: 54ba 01bd ae2d a0bc ca09 a73c 52b9 0a3d
00000170: 0453 823e 27f3 cebc 7da3 a1bd 4e83 c43e
00000180: 1d86 4bbd 7840 47bd 6499 bebd 8bc1 3ebd
00000190: 5ae1 78bd 33e0 36bd ea18 05bc 843b 65bd
000001a0: f6eb 0c3a 0b82 2ebd 4ae3 79bd 2d1f db3b
000001b0: 8e3c 2a3c 591f 55be f275 363d f4b5 c1bd
000001c0: 129b 9c3e 700a 0bbd 39e7 bdb9 2681 1b3a
000001d0: 2897 36bd 0c61 5fbb ffdb a23e 2c25 46bc
000001e0: 009f 7abd c226 99bd e2c8 94bc 17c4 8e3b
000001f0: 3658 03bd df75 21bd 9687 29bd ce5b 7abd
00000200: bc58 22bd 7c6d 5fbd 1634 dfbb 2809 83bd
00000210: 67dd 96bc b637 47bd 9b08 2abc 3a2c 6b3c
00000220: b91c 5bbd 3747 383a 6cbb 9e3c 6bf8 ad3c
00000230: f7c2 6fbd 9b97 40bc a4ba 3cbd 7838 a2bc
00000240: a908 a1bd 4655 97bd 2c3a 6f3c 00e6 9bbd
00000250: 1cab 3abc e82a 003c f1db 2d3e fb22 3abc
00000260: 45f9 58bd 38b8 4c3b 8de4 c5bc d8b4 4d3e
00000270: a0a0 4dbb 13cd 03bd fd9c f3bc eb6a 1fbd
00000280: 2b62 eabc b8fa b0bd 2ea4 a2bd 62be 06bd
00000290: 5e2b aebc d9e7 5abd e45d d93d 6691 893d
000002a0: a0a6 8cbb 501b 433c a496 8abd 48e4 283e
000002b0: e276 453e 803b 6a3e 88a0 0ebd 105b bb3c
000002c0: a921 7fbd 1896 21bd 4bc6 c63b 363c 85bd
000002d0: 64d8 b0bb 64f9 47bd 9679 863e d07a cabc
000002e0: dce1 84bd 4c8a 25bd e4c9 6dbd c932 07bd
000002f0: 61cb ebbd 19d2 aabd 19e5 25bd 431a adbc
00000300: 8a1c 9bbd cded 52bd be1b 81bc 1a27 973d
00000310: 6fdd d5bd f8f8 e9bd cd9e aabc ac3f 28bd
00000320: e859 78bd 0be1 72bd cd8a ccbd c4ae d5bb
00000330: cdfa 80bd 89a0 b5bc ddac b9bc 313f 93bd
00000340: 5bac bebc 9d73 abbb 86c3 5a3c 5faa bfbc
00000350: b3b5 e13c 918c 12be cfb5 9d3c f71e 213c
00000360: ddea dabc 7126 68bd 4ca8 9ebd e4f1 f33b
00000370: 27c3 a9bc 7b75 6c3e 5a59 e9bb c802 6bbd
00000380: 11ee 8cbd c645 d13d 57e0 46bd aa8b 10bd
00000390: b237 2cbd 49e9 16bd 06c8 7a3b 4b4f 46bd
000003a0: b388 8ebd 9dc3 2ebd b01e 12bd 149e 0fbd
000003b0: d4d8 8abc ec4a 453e 8c87 d3bc 4523 e5bd
000003c0: add7 3b3c 259a 20bd 8e6c 0bbd 6a5c 7cbd
000003d0: 12fe 55bd 8720 413e 89b3 5ebd 8bb4 f2bc
000003e0: c7e9 b0bd 8a5b f1bd d611 5abb 7c14 01bd
000003f0: e64f a93d 2e6a 3a3e f28d 523e 487c 24bd
-0.012663144 -0.017569542 -0.009671937 -0.04146988 -0.04385389 -0.009607784 -0.06649672 -0.07353161
0.0024001228 -0.013011878 -0.017146146 -0.07813404 -0.013008384 -0.007853796 -0.035800926 -0.0485734
-0.04776436 0.17495055 -0.07615994 0.08312101 -0.10836874 0.016887615 -0.12331403 -0.058128394
0.003972364 -0.06308217 -0.03020165 -0.01886304 -0.06737432 0.17123061 0.055705387 -0.050576556
-0.010429726 -0.047756746 -0.030430494 -0.066571094 -0.0457391 -0.07406324 -0.019669518 -0.055831343
-0.0129518565 -0.053782985 -0.023857405 -0.018246531 -0.28869355 0.015704079 -0.0037913257 -0.09194806
0.1695227 -0.0042589484 -0.006605498 -0.05548339 -0.054172404 0.011422576 -0.12764086 -0.102604106
-0.028909747 0.012201142 -0.08387901 -0.025231168 -0.06367371 -0.055180974 -0.060562093 -0.06878369
-0.13408108 -0.08027626 -0.07839839 -0.013266466 0.016948884 0.21233386 -0.042913012 -0.009762505
-0.061265443 0.011019436 -0.0363419 -0.023074545 0.32137823 0.006019697 -0.009371175 -0.032391317
-0.0056647058 -0.062442902 -0.05895495 -0.24082111 -0.038676597 -0.017226856 -0.021447983 -0.020496003
-0.031671837 -0.019553032 0.02039041 0.03386814 0.2545396 -0.025262428 -0.07892511 0.38381428
-0.049688447 -0.048645467 -0.09306601 -0.046571296 -0.060761787 -0.044647407 -0.008123616 -0.05596496
0.0005375737 -0.042604487 -0.061007775 0.006687066 0.010390414 -0.2081274 0.044546075 -0.09458533
0.3058706 -0.0339455 -0.00036221163 0.00059320254 -0.044577748 -0.0034084944 0.3180847 -0.012093823
-0.06118679 -0.074780956 -0.018162195 0.004356872 -0.032066546 -0.03941905 -0.04138907 -0.061122708
-0.039635405 -0.05454777 -0.006811629 -0.06398231 -0.01841612 -0.048637114 -0.010378028 0.014353806
-0.05349419 0.0007029655 0.01937648 0.021236619 -0.058535542 -0.011754896 -0.046076432 -0.019802317
-0.0786298 -0.073893115 0.014601272 -0.076122284 -0.011393335 0.00782273 0.16978432 -0.011360879
-0.052972097 0.0031237733 -0.024156833 0.20088518 -0.0031376258 -0.032177996 -0.029737944 -0.038920324
-0.028611263 -0.08641571 -0.07941471 -0.032896407 -0.021260913 -0.053443763 0.10613611 0.06717186
-0.004292324 0.011908367 -0.06767014 0.16493332 0.19283631 0.2287426 -0.034821063 0.02287057
-0.06228796 -0.03944978 0.006066119 -0.06505625 -0.0053968895 -0.04882182 0.26264638 -0.024716765
-0.06488392 -0.040415093 -0.058053866 -0.033007417 -0.11513401 -0.08340854 -0.040501688 -0.021130687
-0.07573803 -0.051496316 -0.015760299 0.07380505 -0.10442626 -0.1142444 -0.020827675 -0.041076347
-0.060632616 -0.05929665 -0.09987412 -0.006521078 -0.062978365 -0.022171276 -0.022665435 -0.07189787
-0.023275545 -0.005232288 0.0133522805 -0.023396669 0.027552461 -0.14311434 0.019251732 0.009834043
-0.02672332 -0.056677286 -0.07746944 0.007444607 -0.020722939 0.2309169 -0.0071212472 -0.0573757
-0.06881345 0.10218386 -0.04855379 -0.035289444 -0.042045303 -0.03684357 0.0038266196 -0.048415463
-0.06959667 -0.04266702 -0.035673797 -0.035062864 -0.016949095 0.19266862 -0.02582147 -0.11188368
0.011464995 -0.039209504 -0.034039073 -0.06161157 -0.052244253 0.18860064 -0.054370437 -0.029627105
-0.086383395 -0.11785038 -0.0033274791 -0.031513676 0.082671925 0.18204567 0.2056196 -0.040157586

body.net.4.weight f4 [1, 256]
00000000: c319 84ba 442e 0b3d 58b5 bb39 f0ec 1e3d
00000010: 5992 a43b b0ee 0dbd 5167 95bd f5fd ba3c
00000020: faa4 92bb c220 d93b 9943 95bc ddfb 8cbf
00000030: 99f4 433c 47f3 8a3f fb17 a1bd 9327 0e3d
00000040: 5e80 8a3b c41b 2ebf ac64 28bc f96e 2b40
00000050: 8b78 36bd c479 4bbc d0f7 5bbd 9041 aebc
00000060: caa3 3f3d ed89 6fbc 8092 d13c 92f8 3cbe
00000070: 523a 3bbc 1de1 ea3e cb83 50bf ddc0 d9bc
00000080: d38f c03c 1c79 fdbc a981 003d 1182 81bb
00000090: 1c91 043d 7687 06bd 2ef9 54bc 012b eaba
000000a0: 77c1 3cbe 3a08 113d 3eee ec3c a00b 803b
000000b0: 985b 01bf da56 933c 8082 2abe eae6 1c3d
000000c0: 8594 233f 4ffa 4d40 53e1 9e3c c615 6f39
000000d0: ce89 62bc 9d49 f33f 04dd c83d dadc 12bc
000000e0: 81b9 063a b2bd c53c f54a 9cbc c48f 00bc
000000f0: 5877 91bc 1c41 2e3c bc39 fcba 4327 fb3b
00000100: ad68 34bd 06df a5bc 0ed6 e9bc 6a97 333c
00000110: 1181 54bb c75b 0cbf d7c6 e7bc 239a e0bc
00000120: dd77 0bbc bf36 73bc 0801 aebc 7ba4 b7bc
00000130: 9720 a140 2cb4 593d 60b6 313c 3406 12bc
00000140: d6bd fcbc 4ef3 4f3d 99a3 b1bc 8d04 cd3f
00000150: 312d f6bc abe9 e83c 3a58 323c 6fd3 8cba
00000160: 0fd6 7f3e e5e0 8bbc 8fc3 183c fc09 313b
00000170: 75f9 f2be 7d15 a53b b8f1 983b 72b6 06bf
00000180: f2bd 803c 6795 2c3c b4ea 05bd cc6c f6ba
00000190: 547b 053d 8bf9 b23b 90ab 07bd 963e 31be
000001a0: fe7b cabb 75f9 913b 07e3 5ebd e730 c0bc
000001b0: a862 273d 6bb5 8ebe 1941 e93d 41b2 5ebe
000001c0: 8a85 b2be 573c 28bc c037 8cbb 8ca3 66bd
000001d0: ef44 cc3a 3b2e b3bc b8cf 6640 3c45 bbbb
000001e0: 50eb bd3b eb6b 00bd 2dbc 7cbc e32c 053b
000001f0: c1e5 46bd 4c8a f1bb 4cd2 a6bb 1400 4bbb
00000200: be63 7fbd 1212 5f3d 1303 d9bb 45f1 9a3c
00000210: eb30 963c c52b f03c 5beb bd3c 3f4d 2ebd
00000220: 8f77 9f3c bcc6 a63c aa3b 6abc 20b2 a53b
00000230: e978 a0ba 3a3a 88bb b0f1 a0bb 420d 883c
00000240: 2f9d 8b3c a25d c3bc 80a3 3abc 365d 6a3b
00000250: 1104 a1bc 39ba a3bc d555 123f 5169 cebc
00000260: 3399 013d e9f8 b13c 91da 0abd b616 cfbe
00000270: a0d1 d0bb 33bb cdbc 887c 5fbd c7da f3bc
00000280: d12c b13a d0b9 03bd a11a 73bc 1ed9 753d
00000290: 6d85 64bb f077 c1bb cf7e 3240 2ff6 afbe
000002a0: 5436 5bbb 7871 31bc a884 d93c d183 66be
000002b0: 0964 01bf 7c36 04bf f229 9939 f9e3 0fbd
000002c0: aec6 bd3c 5866 093c 926b 84ba 9026 1abc
000002d0: 929a 9a3c f9dd 3f3d 7803 6e40 b14d 0bbc
000002e0: 9422 98bc 66e5 8fbc d6c1 59bd ede5 de3b
000002f0: acd0 663c 5c33 1e3d 1edf 603c a1d4 933c
00000300: 70d9 c23a 87d6 4c3d 816b b03e 01b5 d03f
00000310: 549c 80bd ed8d 613e 1eb2 40bc 3d4f ec3c
00000320: 1d1c 41ba 2783 0dbc 6a98 6d3c 85c7 22bc
00000330: 1e5b 983c 6816 4c3b 0f89 2a3c 33c3 203d
00000340: 844b bfbc 6a11 dabc a474 823c fef5 36bd
00000350: f87e 4dbf f848 3ebd 4814 60bb 0f13 143a
00000360: edd4 0fbd 3906 ae3c e0ea 86be c4f1 a8bb
00000370: 3f11 93bd a481 a5be df3a 81bc 5eb5 aebb
00000380: 3ace 95ba 7e03 c2be 16ce babc bab0 c2bb
00000390: fe61 fb3c 7e59 c93c 9825 343c 7d9d 3d3d
000003a0: f504 bf3c bfab d2ba 4800 3ebe 46f0 45bd
000003b0: 7ca0 9e3b 6bf6 0ebf 1ffb 083d d54d 87bc
000003c0: 5b27 dd3c f53e 863c 80bd b83b 05db 4d3b
000003d0: 144f 033d 4a21 523e 0f6c d5bc f287 6bbc
000003e0: 2f22 2a3c 0b7d 03bc 59c0 36bc df8d 6ebc
000003f0: ad6f 4d40 c76c 86be 4e2d 33bf 1774 a63b
-0.0010078478 0.03397967 0.0003580253 0.03880018 0.005022329 -0.03465146 -0.07295097 0.022826174
-0.004475233 0.0066262195 -0.01822071 -1.1014363 0.011960172 1.0855492 -0.07865902 0.03470571
0.0042267283 -0.68011117 -0.010277908 2.6786482 -0.044548552 -0.012419168 -0.05370313 -0.021271497
0.04678706 -0.014620286 0.025582552 -0.18454197 -0.011427479 0.45874873 -0.814511 -0.026581222
0.02350608 -0.030941539 0.031373654 -0.0039522727 0.03236495 -0.03284403 -0.012998862 -0.0017865599
-0.18433176 0.035408236 0.028922196 0.003907636 -0.50530386 0.01798575 -0.16651344 0.038306154
0.638985 3.2184026 0.019394552 0.00022800927 -0.0138268005 1.900684 0.098077804 -0.008963788
0.00051393366 0.024138305 -0.019078711 -0.007846776 -0.017757103 0.0106356405 -0.001924328 0.0076645925
-0.04404514 -0.020247947 -0.028544452 0.010961393 -0.0032425562 -0.5482754 -0.028293056 -0.027417248
-0.008512464 -0.014844595 -0.021240726 -0.022417298 5.0352283 0.05315034 0.010846704 -0.008912612
-0.03085224 0.050769143 -0.021684455 1.6017014 -0.030050846 0.028431734 0.010885293 -0.0010744164
0.24984 -0.017075012 0.009323969 0.0027014008 -0.47455946 0.005037962 0.004667487 -0.5262214
0.015715573 0.010533667 -0.032694533 -0.0018800735 0.032588318 0.0054618767 -0.0331226 -0.17309031
-0.006179332 0.0044547864 -0.05441573 -0.023460818 0.04086557 -0.27872786 0.113893695 -0.21747686
-0.34867507 -0.010268292 -0.004279107 -0.056308314 0.0015584509 -0.02187263 3.6064281 -0.0057150405
0.0057958737 -0.03135292 -0.015425724 0.0020320944 -0.048558954 -0.0073712226 -0.0050909873 -0.0030975388
-0.06235098 0.054460593 -0.006622681 0.018913874 0.018333873 0.029317746 0.023183515 -0.042554136
0.01946619 0.020358436 -0.014296452 0.0050566345 -0.0012243065 -0.004157332 -0.004911624 0.016607884
0.017042724 -0.023848359 -0.0113915205 0.0035761124 -0.01965526 -0.019986259 0.5716222 -0.025196703
0.031640243 0.021725135 -0.033899847 -0.40447015 -0.0063726455 -0.025113678 -0.05456212 -0.029767407
0.0013517385 -0.032159626 -0.014837892 0.060021512 -0.0034869567 -0.0059041902 2.7889898 -0.3436751
-0.003344913 -0.010830276 0.026552513 -0.22511221 -0.50543267 -0.51645637 0.00029213686 -0.03512952
0.023166027 0.008386217 -0.0010102859 -0.009408608 0.018872533 0.04684255 3.7189617 -0.00850241
-0.018571176 -0.01756544 -0.053163372 0.0068023116 0.014087837 0.0386232 0.01372507 0.018045725
0.0014865827 0.050009277 0.3445702 1.6305238 -0.06279817 0.22026797 -0.011761216 0.028846378
-0.0007366555 -0.008637226 0.01450167 -0.0099352645 0.018598136 0.0031141285 0.010408654 0.039248656
-0.023351438 -0.026619632 0.01592476 -0.04466819 -0.80271864 -0.046456307 -0.0034191776 0.0005648592
-0.03511517 0.021243202 -0.2635107 -0.005155774 -0.07181024 -0.3232547 -0.015775142 -0.0053316792
-0.0011429258 -0.3789329 -0.022803348 -0.0059414776 0.030686375 0.024578806 0.010995291 0.04629277
0.023317793 -0.0016072913 -0.18554795 -0.048324846 0.0048409086 -0.55844754 0.033442613 -0.016516605
0.026996305 0.016387442 0.0056378245 0.0031411063 0.032057837 0.20520511 -0.026052503 -0.014375674
0.010384127 -0.008025418 -0.011154258 -0.014560192 3.2099411 -0.26254866 -0.69991004 0.005079757
