mountain_car_continuous/DDPG/critic.pth (torch, 270654 bytes, 5 tensors)

q.net.0.weight f4 [256, 3]
-0.86683005 0.89704996 -0.02107182 -1.0759954 1.4336382 -0.057300635 -0.014584539 -4.419944
0.16024336 0.0747343 -0.23841448 0.35974833 0.21944554 0.31326464 0.14256889 -0.014670923
-0.8548514 0.07833459 -0.32560563 0.9787325 -0.008849091 -0.009236616 -4.046032 -0.011879392
0.54596454 1.1363602 0.49977893 0.27767387 0.11677345 0.37419394 1.2140937 1.1140925
-0.09079393 -0.23379968 4.121844 -0.020807274 0.059512123 3.3212464 0.33827704 0.13106035
5.156913 0.014447196 -0.23520145 -4.0308995 0.4598577 0.56373703 0.49777344 0.0049488368
-0.0064995033 2.348519 0.7167743 0.19906262 -1.4016274 0.52192575 0.4868702 0.39748013
-0.122101314 0.16125207 -0.16598466 0.20925444 2.0707774 1.5641239 -0.049344797 -0.068172015
-0.28719723 -0.053767662 0.63484734 2.22583 -0.030504167 0.060746722 -3.9952054 -0.0072775967
0.49564204 -0.6132034 0.014038435 0.3921404 0.56828517 -0.22211935 0.007181811 0.23022574
0.006289931 0.15459019 5.072473 0.013283004 -0.0053810054 0.47121185 0.5932217 -0.32050696
-3.901018 -0.030848762 -0.30514947 0.83121234 0.37837702 -0.10428552 0.2399168 -0.17861784
0.09895822 -0.26953587 -0.41360843 -0.07875188 -3.4157033 0.18827131 1.440826 0.9416436
0.033067275 -0.10340029 -0.15784925 0.35175034 0.45576167 -0.30977923 0.041162293 0.19793546
-3.2815619 0.07775923 0.11026045 3.6129413 0.31539917 0.57374096 1.4458251 0.48729208
-0.13969077 1.890322 0.48666465 -0.7747284 0.7667169 0.06884515 -0.43047288 1.3552037
0.29162484 0.0739487 -0.94426906 0.058616944 0.23245995 1.0587711 -0.18809749 -0.46864718
1.834601 -0.24321675 0.06038199 -2.3104312 -0.18851596 0.88153327 1.8450536 0.15824805
0.29031715 -3.2813115 0.08980892 0.5957102 -1.1419629 0.0034594696 0.6600965 -1.1342115
-0.0018431367 0.040573053 -0.54660827 -0.35144717 0.20814113 1.2483298 0.6155965 1.176999
1.2827207 0.18504874 -0.011207409 -0.41289368 -0.3604412 0.48223004 0.07292404 -0.093030944
-0.44956937 0.59116036 -0.34777814 -0.052406363 0.3102875 -0.11172769 -0.006127021 -0.76985174
0.06183297 -0.38224167 -4.3896313 0.38705778 -0.046564918 -2.7789729 0.27126616 0.49467486
0.80866474 0.5056521 -0.23097818 2.6209147 0.11242855 -0.9955416 1.4007127 -0.31444362
-0.042892627 2.8706024 -0.7491334 0.24206972 0.350823 0.27374902 0.51901907 1.4826173
0.1576514 0.25846726 -1.7349855 0.46987492 -0.40600312 -6.4017267 -0.016043631 -0.08169612
-3.6268125 0.4816504 -0.25252113 1.5420951 -0.032956745 -0.2620243 1.0193434 0.54148537
1.2368145 1.7319335 0.068211295 1.2613541 -0.4648276 -0.42221415 -0.010183148 -0.036125205
-0.17182283 0.091123514 1.3766078 0.5716082 0.19438766 -3.5082815 0.08502715 0.61791605
1.7593817 0.0079564 -1.0260154 0.9852204 -0.004527172 -0.06973071 0.2954885 -0.21613704
0.26932657 -0.7195824 0.47996166 0.733857 2.8454986 -0.0030742586 0.5995089 0.24772821
0.0096211815 0.41517115 4.2269087 0.0093540475 0.6473338 -0.22681288 -0.00078250363 0.52409375
00000000: 93e8 5dbf 11a5 653f cf9e acbc 38ba 89bf
00000010: 7581 b73f 12b4 6abd fef3 6ebc 2e70 8dc0
00000020: d616 243e 4c0e 993d ed22 74be ef30 b83e
00000030: 55b6 603e 3964 a03e 94fd 113e 505e 70bc
00000040: 8bd7 5abf e36d a03d c8b5 a6be 378e 7a3f
00000050: c7fb 10bc 2d55 17bc 1879 81c0 c8a1 42bc
00000060: 55c4 0b3f 4074 913f 06e3 ff3e 452b 8e3e
00000070: eb26 ef3d 5996 bf3e 6c67 9b3f 959a 8e3f
00000080: 2bf2 b9bd 2f69 6fbe 25e6 8340 0474 aabc
00000090: fcc2 733d 4d8f 5440 a632 ad3e af34 063e
000000a0: 6e05 a540 efb3 6c3c a6d8 70be 21fd 80c0
000000b0: 7872 eb3e 1251 103f 29dc fe3e da29 a23b
000000c0: c9f9 d4bb 234e 1640 857e 373f 12d7 4b3e
000000d0: 8768 b3bf ed9c 053f 0d47 f93e 8482 cb3e
000000e0: 4110 fabd 431f 253e e2f7 29be cc46 563e
000000f0: 9e87 0440 3635 c83f c51d 4abd c59d 8bbd
00000100: 840b 93be 7b3b 5cbd 5b85 223f 0074 0e40
00000110: e0e3 f9bc 8ed1 783d 72b1 7fc0 e878 eebb
00000120: cbc4 fd3e e6fa 1cbf 7701 663c a0c6 c83e
00000130: 237b 113f 4173 63be 6655 eb3b 4cc0 6b3e
00000140: c41b ce3b e44c 1e3e b351 a240 f5a0 593c
00000150: 2553 b0bb ae42 f13e 61dd 173f 7d19 a4be
00000160: 47aa 79c0 8bb6 fcbc 8d3c 9cbe 55ca 543f
00000170: a2ba c13e a693 d5bd c0ac 753e 98e7 36be
00000180: 9baa ca3d 9b00 8abe 7cc4 d3be aa48 a1bd
00000190: e29a 5ac0 32ca 403e fd6c b83f 8e0f 713f
000001a0: 8d71 073d 88c3 d3bd 3ca3 21be 9f18 b43e
000001b0: 9859 e93e 629b 9ebe cb99 283d 98af 4a3e
000001c0: 1c05 52c0 3b40 9f3d 3bd0 e13d 6e3a 6740
000001d0: 007c a13e b0e0 123f cc10 b93f 597e f93e
000001e0: 190b 0fbe 12f6 f13f 1c2c f93e 9a54 46bf
000001f0: 8f47 443f b0fe 8c3d f166 dcbe 5177 ad3f
00000200: da4f 953e 6b72 973d 9ebb 71bf 5218 703d
00000210: fb09 6e3e d085 873f a19c 40be 86f2 efbe
00000220: 35d4 ea3f d00d 79be 1b53 773d 1bde 13c0
00000230: 540a 41be 2aac 613f b72a ec3f c70b 223e
00000240: 73a4 943e 0201 52c0 bded b73d 7780 183f
00000250: d72b 92bf 45b8 623b 16fc 283f d82d 91bf
00000260: 6895 f1ba ee2f 263d 85ee 0bbf e2f0 b3be
00000270: f322 553e 45c9 9f3f bb97 1d3f e7a7 963f
00000280: 3130 a43f 6b7d 3d3e 489f 37bc cd66 d3be
00000290: c08b b8be dbe6 f63e 3359 953d 0287 bebd
000002a0: f52d e6be 4956 173f fa0f b2be 0ea8 56bd
000002b0: 01de 9e3e 7dd1 e4bd 2dc5 c8bb 0115 45bf
000002c0: 9144 7d3d 2eb5 c3be dc77 8cc0 702c c63e
000002d0: dbba 3ebd b1da 31c0 66e3 8a3e 0646 fd3e
000002e0: a704 4f3f 6b72 013f 8b85 6cbe 11bd 2740
000002f0: f140 e63d d0db 7ebf 8e4a b33f c1fe a0be
00000300: 2eb0 2fbd f3b7 3740 35c7 3fbf 20e1 773e
00000310: 129f b33e d528 8c3e 6fde 043f 67c6 bd3f
00000320: 5e6f 213e d255 843e 0114 debf 7293 f03e
00000330: a4df cfbe f2da ccc0 ef6d 83bc 4c50 a7bd
00000340: b21d 68c0 e29a f63e 734a 81be 5f63 c53f
00000350: a7fd 06bd 0d28 86be d879 823f c99e 0a3f
00000360: f04f 9e3f ffaf dd3f 5db2 8b3d 0d74 a13f
00000370: e2fd edbe 742c d8be 38d7 26bc 06f8 13bd
00000380: 53f2 2fbe f79e ba3d af34 b03f ea54 123f
00000390: 8f0d 473e af87 60c0 b722 ae3d bf2f 1e3f
000003a0: 6b33 e13f 8f5b 023c 7954 83bf 6737 7c3f
000003b0: ac58 94bb f9ce 8ebd 454a 973e 0753 5dbe
000003c0: 2ce5 893e 8d36 38bf 89bd f53e 0dde 3b3f
000003d0: a61c 3640 8079 49bb 6a79 193f 77ac 7d3e
000003e0: 29a2 1d3c 5091 d43e d642 8740 b841 193c
000003f0: abb7 253f a341 68be ee20 4dba 022b 063f

q.net.0.bias f4 [256]
0.5736107 -0.14965238 0.037079677 0.25634447 -0.53796065 0.38778824 0.49677354 0.035763327
-0.5860903 -0.5321921 -0.28319746 0.02139714 0.47916874 0.24305981 0.25558195 0.4677139
-0.29684123 0.24013825 0.4543663 0.4336529 -0.2537399 -0.38494056 0.41056535 0.08091936
0.4124652 -0.56570375 -0.077897824 0.25965148 -0.033689644 0.33979413 0.08832034 -0.32530332
-0.56949836 0.2755936 0.5272348 -0.5178371 0.35702965 0.3826318 0.5060025 -0.40287185
0.19812366 -0.05741756 0.24984725 0.40748972 0.6719902 0.14353754 0.36184904 0.21831216
0.43763795 0.39608768 0.43991438 -0.459092 0.117046826 0.11307472 -0.5015126 0.56242466
0.6563413 -0.5122923 0.41516888 0.103340864 0.35479537 -0.5904377 0.100343645 0.14971577
-0.27598992 -0.4263508 -0.3806302 0.18116711 0.18176581 -0.20395108 0.118004076 0.58006203
0.17161922 -0.119657815 -0.4369257 -0.0055824625 -0.18219538 0.36631927 0.4728124 -0.47819445
0.36128622 0.5505034 0.49911875 0.21281037 0.41294065 0.28709564 -0.019387618 0.44404453
0.5338628 -0.5154194 0.6656932 0.42294416 0.06585706 0.67696315 0.6286022 0.036620352
-0.23747233 -0.250771 0.5939584 0.4677831 -0.51313514 0.22916166 -0.39393473 -0.37665588
-0.54113317 0.3612657 0.429232 0.28988835 0.13024545 0.15545979 0.25294548 -0.3574365
0.31194037 -0.5773754 -0.1325971 0.564136 -0.46155778 -0.45899862 0.6262075 0.17766248
0.38421288 0.51275575 0.276538 -0.17319098 0.6954266 0.3977047 -0.5311921 -0.61471117
-0.5281418 -0.0026320685 -0.29536372 0.80089134 0.32472807 -0.38679484 0.084037915 0.11211712
-0.4507512 0.13471729 -0.1623024 0.17618142 0.09695575 0.3007376 -0.35402474 0.43604407
-0.50539505 0.44126314 -0.44781074 -0.111183695 0.44527906 -0.50101835 0.40448588 0.10299196
-0.16594496 0.16609494 0.114155546 0.5298527 -0.25946304 -0.039208278 0.24743056 0.18768685
0.44035208 0.42465636 0.5922473 0.23930296 -0.5545143 -0.2122545 -0.39082342 0.7373706
0.05975828 0.026469922 0.5061095 0.49394 -0.13963658 0.5150973 0.4210292 0.22874334
-0.7540462 0.4321926 0.17523094 0.3558415 -0.029899701 0.28613412 -0.05673241 -0.26175216
0.6463355 0.44875297 0.06973117 -0.3608245 -0.52330476 0.38799202 -0.47504732 0.28362155
0.60943466 -0.12436115 0.35180947 -0.091766745 -0.069387965 -0.28819868 0.3508461 0.49837554
0.20374778 0.35099018 -0.5382942 0.44379038 -0.12372304 0.42083794 0.467668 0.47930247
0.38668016 0.4933234 0.1909358 -0.37621835 0.44742745 0.2669811 0.12564695 0.48663214
0.2841279 0.101901494 0.53593946 -0.4761117 0.37195462 -0.4937321 0.27892035 -0.5593228
0.23831113 -0.18174553 0.033674315 0.27241278 -0.4289913 0.077039056 0.43972397 0.4130402
-0.15677917 0.42129123 0.26570895 0.08595943 0.3407701 -0.47125 0.4545713 0.51512474
-0.48954618 0.4665548 0.4438807 0.08288548 0.49438807 0.20782061 0.668836 -0.52176833
-0.33242622 0.30832633 -0.05668363 -0.5379294 0.2581155 -0.3414831 -0.22732045 -0.41322887
00000000: 27d8 123f 793e 19be dce0 173d 953f 833e
00000010: cab7 09bf 2e8c c63e 1a59 fe3e 917c 123d
00000020: 040a 16bf be3d 08bf 42ff 90be 0e49 af3c
00000030: 9b55 f53e ace4 783e a3db 823e 3278 ef3e
00000040: 93fb 97be cde6 753e b3a2 e83e c107 de3e
00000050: 32ea 81be ee16 c5be 9f35 d23e 0db9 a53d
00000060: a42e d33e f6d1 10bf e588 9fbd 0af1 843e
00000070: 27fe 09bd 7ff9 ad3e 4be1 b43d 288e a6be
00000080: a5ca 11bf 9b1a 8d3e dcf8 063f f990 04bf
00000090: 97cc b63e 51e8 c33e 6189 013f 3845 cebe
000000a0: eee0 4a3e ad2e 6bbd f5d7 7f3e 7ea2 d03e
000000b0: 8d07 2c3f 81fb 123e 4744 b93e 398d 5f3e
000000c0: 1512 e03e 01cc ca3e 753c e13e 1b0e ebbe
000000d0: 3fb6 ef3d b893 e73d 2163 00bf 10fb 0f3f
000000e0: fc05 283f 9725 03bf 0491 d43e 60a4 d33d
000000f0: bda7 b53e ed26 17bf f880 cd3d 174f 193e
00000100: 8d4e 8dbe a74a dabe f6e1 c2be df83 393e
00000110: d120 3a3e 8dd8 50be 1fac f13d f27e 143f
00000120: f3bc 2f3e 280f f5bd bab4 dfbe 17ed b6bb
00000130: 6d91 3abe 338e bb3e 7814 f23e e7d5 f4be
00000140: 82fa b83e caed 0c3f 7e8c ff3e f6ea 593e
00000150: f56c d33e 33fe 923e c8d2 9ebc ce59 e33e
00000160: 3cab 083f 87f2 03bf df6a 2a3f 238c d83e
00000170: 11e0 863d 754d 2d3f 13ec 203f 39ff 153d
00000180: f22b 73be 0e65 80be a80d 183f 4481 ef3e
00000190: d35c 03bf 5ba9 6a3e d0b1 c9be 0ad9 c0be
000001a0: b487 0abf d1f7 b83e 4cc4 db3e 3f6c 943e
000001b0: 105f 053e da30 1f3e 1282 813e eb01 b7be
000001c0: a6b6 9f3e e0ce 13bf 89c7 07be 386b 103f
000001d0: 4d51 ecbe de01 ebbe 224f 203f 27ed 353e
000001e0: 8db7 c43e f643 033f 6496 8d3e fa58 31be
000001f0: 7a07 323f f39f cb3e 35fc 07bf b65d 1dbf
00000200: 4d34 07bf c87e 2cbb ea39 97be 3707 4d3f
00000210: c242 a63e f909 c6be 121c ac3d a99d e53d
00000220: dcc8 e6be 54f3 093e 9a32 26be e768 343e
00000230: bc90 c63d 47fa 993e bb42 b5be 2b41 df3e
00000240: 9261 01bf 3eed e13e 7347 e5be 47b4 e3bd
00000250: 9efb e33e bd42 00bf c618 cf3e 73ed d23d
00000260: 7aed 29be cb14 2a3e 62ca e93d 6da4 073f
00000270: 57d8 84be dc98 20bd 705e 7d3e fb30 403e
00000280: d475 e13e 8f6c d93e 859d 173f d60b 753e
00000290: a6f4 0dbf 3e59 59be 021a c8be 52c4 3c3f
000002a0: 19c5 743d 73d7 d83c 6490 013f b4e5 fc3e
000002b0: e4fc 0ebe 6bdd 033f 2491 d73e b23b 6a3e
000002c0: 2c09 41bf 5948 dd3e bd6f 333e db30 b63e
000002d0: 38f0 f4bc 2c80 923e 3e60 68bd 6104 86be
000002e0: 3e76 253f f3c2 e53e 37cf 8e3d fdbd b8be
000002f0: 4df7 05bf e4a6 c63e 6739 f3be d836 913e
00000300: e903 1c3f 0fb1 febd 5f20 b43e 34f0 bbbd
00000310: 471b 8ebd c78e 93be 1aa2 b33e 142b ff3e
00000320: 42a3 503e fcb4 b33e a6cd 09bf 7e38 e33e
00000330: 8162 fdbd 1278 d73e 2e72 ef3e 2267 f53e
00000340: f1fa c53e e294 fc3e ad84 433e b19f c0be
00000350: 3615 e53e bfb1 883e 98a9 003e d927 f93e
00000360: 3679 913e bbb1 d03d 5433 093f eac4 f3be
00000370: d670 be3e 74ca fcbe a6ce 8e3e c72f 0fbf
00000380: d507 743e 801b 3abe 14ee 093d b079 8b3e
00000390: bfa4 dbbe a7c6 9d3d 8023 e13e 017a d33e
000003a0: b88a 20be 7cb3 d73e 010b 883e 7f0b b03d
000003b0: 6b79 ae3e ae47 f1be 92bd e83e 37df 033f
000003c0: cca5 fabe 45e0 ee3e 5544 e33e ddbf a93d
000003d0: 6f20 fd3e edce 543e d638 2b3f 9c92 05bf
000003e0: c533 aabe f3dc 9d3e 182d 68bd beb5 09bf
000003f0: b727 843e dfd6 aebe b1c6 68be bc92 d3be

q.net.2.weight f4 [256, 256]
-0.09394656 0.00898656 0.0016093268 -0.026922323 0.01934722 0.044826943 -0.083275355 -0.0053119855
-0.050908137 -0.021006152 -0.013487593 -0.051267702 0.0026406092 -0.13855192 0.007153747 0.013337712
-0.03631485 -0.08843431 -0.0493312 0.0035218047 -0.025895119 0.03289199 0.03231907 0.03152751
-0.03596286 0.014043376 -0.029089455 -0.04336918 -0.032770716 -0.018720984 0.013862736 0.009446211
-0.00258445 0.04562693 -0.08985792 -0.042502098 -0.07778492 0.027075153 -0.0075457017 -0.025225563
-0.01673673 -0.019449577 -0.023797575 -0.021755913 -0.053653635 -0.019900637 0.007827672 0.0019582286
-0.09153441 0.042687204 0.013488792 -0.01232367 0.023889134 -0.08304825 -0.05388297 -0.0023052678
0.008751651 0.037611462 -0.013758496 0.01453422 0.059244532 0.004528299 -0.029551642 -0.08209073
0.07143438 -0.050926246 -0.040038723 -0.020581383 -0.016658554 0.072424464 -0.07255164 -0.05420915
0.0006263081 0.049303092 -0.056561783 -0.00068991253 0.060410194 -0.019293407 -0.06600633 0.014353447
0.008282509 -0.0003398173 -0.0005510796 -0.07933455 0.009260843 -0.0021788396 -0.03662999 -0.0038167154
-0.09870101 -0.0013799954 0.019820275 -0.022766437 0.0411814 -0.068704225 0.023171684 0.03450197
-0.04817675 -0.044129025 -0.010852599 0.013165185 0.040882833 -0.060709897 0.05085193 -0.019125953
-0.0136576 0.035307143 0.014343065 -0.019906033 -0.03671894 0.022217136 -0.007899999 0.04257559
0.023922298 0.028365368 -0.04378946 -0.036673408 -0.019434102 0.09240809 0.057133336 -0.014730791
-0.07636676 -0.09865993 0.008154721 -0.06876074 -0.08369893 0.011839225 0.022743441 0.055057347
-0.048377946 0.043295518 -0.019261256 0.049501892 -0.013795873 -0.021313822 -0.034022152 0.03355669
-0.02191728 -0.013287734 -0.051038854 0.041849412 0.002400926 -0.023547256 -0.05608713 -0.03606506
0.019619301 -0.06886676 0.01590579 0.00939595 -0.044958625 -0.030013464 -0.05607872 0.03409916
-0.066074304 -0.07400693 -0.062559485 -0.03087686 -0.047151897 0.052984767 -0.08807099 -0.011085158
0.03503579 -0.009544796 -0.017728047 -0.030260857 0.047264613 0.01485216 0.05200714 -0.039278086
-0.050851215 0.007373907 0.021587916 0.033454515 -0.05537858 -0.086591914 -0.063888654 -0.033837605
-0.019311838 -0.09888552 -0.0027858147 -0.013773336 0.03390804 -0.059345003 -0.051563326 -0.026478646
0.0045277183 -0.04809246 -0.013719208 -0.04792358 0.053667277 0.020719908 -0.056911156 -0.015483589
-0.040918037 -0.06844925 0.035337914 -0.048437357 -0.06460133 -0.034488615 0.10562176 -0.020500658
-0.06601993 0.009534911 0.028991275 0.034478784 -0.015989454 -0.04742026 -0.032758296 -0.038136743
-0.044371977 -0.045990698 0.06529268 0.00037174296 -0.030103361 0.008148668 0.0056079715 0.03295515
0.032369908 -0.0335838 0.017008997 -0.05067633 0.0105411485 -0.0173702 -0.042055305 -0.043538027
-0.045609545 -0.011315413 -0.03876599 -0.06618939 0.025350966 0.010029256 0.0063677635 -0.045719083
0.032851752 0.022179103 -0.09121859 -0.029365906 -0.044003904 -0.028349735 0.01881747 -0.02092215
0.046325564 0.037237655 0.014841468 0.055442803 0.022084739 -0.09417864 0.01806546 -0.0006727502
0.025686884 -0.08547043 0.015447401 -0.024505489 0.017726997 -0.039805483 0.010103357 -0.015586756
00000000: 0e67 c0bd 5d3c 133c 0cf0 d23a 348c dcbc
00000010: 107e 9e3c 759c 373d 458c aabd 2a10 aebb
00000020: 0d85 50bd 1815 acbc 11fb 5cbc 15fe 51bd
00000030: 120e 2d3b 8ee0 0dbe fb69 ea3b 6b86 5a3c
00000040: e1be 14bd 0c1d b5bd 830f 4abd 14ce 663b
00000050: 0022 d4bc c0b9 063d 0061 043d fe22 013d
00000060: cb4d 13bd 3016 663c 024d eebc e2a3 31bd
00000070: 963a 06bd c05c 99bc 8720 633c 48c4 1a3c
00000080: e05f 29bb 4ee3 3a3d 6e07 b8bd ae16 2ebd
00000090: b34d 9fbd b6cc dd3c ef41 f7bb d7a5 cebc
000000a0: 771b 89bc b854 9fbc 22f3 c2bc 7539 b2bc
000000b0: eac3 5bbd a906 a3bc a33f 003c a055 003b
000000c0: 6576 bbbd c7d8 2e3d 1800 5d3c 38e9 49bc
000000d0: 25b3 c33c 3315 aabd 64b4 5cbd fa13 17bb
000000e0: 1663 0f3c 7a0e 1a3d 516b 61bc f020 6e3c
000000f0: 65aa 723d 2062 943b 4916 f2bc 2f1f a8bd
00000100: 304c 923d 0a98 50bd a5ff 23bd 4a9a a8bc
00000110: 8577 88bc 4753 943d f495 94bd 6a0a 5ebd
00000120: d32e 243a 0af2 493d 54ad 67bd 3fdb 34ba
00000130: ae70 773d 350d 9ebc 542e 87bd b82a 6b3c
00000140: 5cb3 073c 8229 b2b9 5376 10ba 277a a2bd
00000150: caba 173c ddca 0ebb 5409 16bd dc21 7abb
00000160: c123 cabd f6e0 b4ba 215e a23c ae80 babc
00000170: d4ad 283d cdb4 8cbd 8bd2 bd3c f051 0d3d
00000180: fc54 45bd a3c0 34bd 19cf 31bc cab2 573c
00000190: c274 273d f1aa 78bd 1d4a 503d 08ae 9cbc
000001a0: 20c4 5fbc 399e 103d 2dff 6a3c fa11 a3bc
000001b0: 9966 16bd b600 b63c ff6e 01bc be63 2e3d
000001c0: b2f8 c33c 7d5e e83c 945c 33bd db36 16bd
000001d0: 4434 9fbc 7440 bd3d a504 6a3d 6a59 71bc
000001e0: 2d66 9cbd 380e cabd 619b 053c 6ed2 8cbd
000001f0: 586a abbd 4ff9 413c 7450 ba3c d083 613d
00000200: f427 46bd a456 313d c8c9 9dbc 7fc2 4a3d
00000210: 1608 62bc 539a aebc d05a 0bbd bd72 093d
00000220: de8b b3bc ccb4 59bc 1e0e 51bd 4a6a 2b3d
00000230: db58 1d3b 2de6 c0bc 9ebb 65bd f5b8 13bd
00000240: a8b8 a03c 040a 8dbd dc4c 823c 78f1 193c
00000250: 8926 38bd ccde f5bc cdb2 65bd 90ab 0b3d
00000260: f751 87bd f290 97bd 301f 80bd 78f1 fcbc
00000270: 5922 41bd 8e06 593d 905e b4bd 869e 35bc
00000280: b081 0f3d c761 1cbc 693a 91bc 9ee5 f7bc
00000290: 8a98 413d 7956 733c 7005 553d 0fe2 20bd
000002a0: 5d49 50bd d1a0 f13b 24d9 b03c 9a07 093d
000002b0: a6d4 62bd 1a57 b1bd 0ed8 82bd 4d99 0abd
000002c0: dc33 9ebc 7e84 cabd 3792 36bb 8fa9 61bc
000002d0: 28e3 0a3d bf13 73bd 1134 53bd bfe9 d8bc
000002e0: 415d 943b 99fc 44bd 87c6 60bc 844b 44bd
000002f0: 38d2 5b3d ccbc a93c ac1b 69bd e1ae 7dbc
00000300: ac99 27bd 1f2f 8cbd 7dbe 103d 4066 46bd
00000310: b44d 84bd ef43 0dbd 3950 d83d fff0 a7bc
00000320: 7535 87bd 5138 1c3c 1c7f ed3c a039 0d3d
00000330: 51fc 82bc bf3b 42bd 902d 06bd 4635 1cbd
00000340: 64bf 35bd be60 3cbd 2bb8 853d 7fe6 c239
00000350: 539b f6bc fe81 053c 13c3 b73b fbfb 063d
00000360: 4f96 043d 2b8f 09bd 7456 8b3c fc91 4fbd
00000370: c8b4 2c3c f34b 8ebc 2f42 2cbd ee54 32bd
00000380: 13d1 3abd 4864 39bc 16c9 1ebd 4e8e 87bd
00000390: d4ac cf3c c051 243c aca8 d03b ef43 3bbd
000003a0: 8f8f 063d f3b0 b53c d0d0 babd c590 f0bc
000003b0: 703d 34bd b43d e8bc 1827 9a3c ee64 abbc
000003c0: e0bf 3d3d 8386 183d a129 733c fe17 633d
000003d0: 0eeb b43c bbe0 c0bd 04fe 933c 805b 30ba
000003e0: 4d6d d23c 1f0b afbd 1917 7d3c bcbf c8bc
000003f0: 3538 913c 130b 23bd 8d88 253c 985f 7fbc

q.net.2.bias f4 [256]
0.008033407 -0.01687496 -0.09370358 -0.014954836 0.18798368 -0.04304354 -0.055314217 0.026515864
0.23093595 0.027998475 -0.06680163 0.26882285 -0.054213576 0.02897726 -0.05373504 0.0023647558
-0.030384868 -0.0783936 0.027979642 0.0015684761 -0.056406133 -0.07629451 -0.0568431 -0.062100004
-0.031756323 0.009517549 -0.044360887 0.024365459 0.18502235 0.0049575893 -0.07484534 -0.05193357
-0.0038388695 -0.003003492 0.1593654 -0.05956178 -0.007846865 0.009751719 -0.060127355 0.17359562
-0.015158155 -0.046257615 -0.0025361595 0.0018595147 -0.074760996 -0.03239475 0.025875412 0.032859795
-0.0064980118 -0.032177202 0.009300336 -0.047399726 -0.05890249 -0.009119471 -0.054634172 -0.013876374
0.030842729 0.16179045 -0.09198815 0.20247024 0.036996946 -0.003206283 -0.06340826 -0.054269418
0.05822284 -0.08906143 -0.0017444133 -0.055013563 0.012418896 -0.10565563 0.04052064 0.0038927775
-0.02343485 -0.049811877 -0.047157206 -0.0734843 -0.06625713 -0.08268644 -0.08219321 0.018054746
0.100578204 -0.06454809 -0.04326293 0.28405547 0.0319394 0.0058367103 0.21708506 0.030540809
0.003243889 -0.065956615 -0.06590114 -0.00934106 -0.08512631 -0.101175606 -0.011572887 0.016099457
-0.016739393 0.13376759 0.01848582 -0.047279693 0.07692783 -0.057959102 -0.0779955 -0.00746429
0.08147467 -0.011776135 -0.051279794 -0.042011503 -0.04374496 -0.037761554 -0.072153635 0.0025518853
-0.002805814 -0.046672855 0.11009309 -0.0033459163 -0.02231712 -0.012783966 -0.012869006 0.017693873
-0.04657124 -0.027797172 -0.017343782 -0.010459125 0.024359677 -0.03994806 0.029192094 -0.051356517
-0.063869156 0.17761162 0.59720033 -0.03275734 -0.074469626 0.12552018 -0.05378313 -0.067919
-0.08683049 -0.022410177 0.018341882 -0.01456842 0.010724798 -0.054162577 -0.0040379385 -0.017018657
-0.07411646 -0.038962692 -0.09735338 0.02310764 0.05453928 -0.035032548 -0.052966643 0.04907417
-0.0073644337 0.025384381 -0.06461766 0.16525477 -0.0371689 0.16160956 -0.094225824 0.006356266
-0.010725129 0.16230126 0.028021513 -0.054473493 -0.033573527 0.024053736 0.004282579 -0.0054550003
-0.058847062 -0.03496443 0.021522975 -0.028511979 0.17113951 -0.059830647 0.0013531143 0.0025883643
-0.08617945 0.588738 -0.004561199 0.013425753 -0.03623398 -0.070361525 -0.052555423 -0.006622974
-0.0058747306 -0.027905611 -0.09399548 0.22821118 -0.07674906 0.035968818 0.04208536 -0.01805547
0.21032113 -0.04758948 -0.04837957 -0.0561328 -0.04128618 -0.031215722 0.039428707 -0.03053096
0.04561299 0.15751936 0.004731804 -0.03647191 0.032486334 -0.045747347 -0.048472527 -0.0122597255
-0.05830382 0.23890121 -0.037202094 -0.012523135 -0.06704241 -0.003257659 0.032399632 0.028118694
-0.057628945 -0.08166292 -0.028283171 -0.07215305 0.0055174977 -0.05876436 -0.0023958294 -0.029164914
-0.09107469 -0.09737879 -0.043087352 0.034595754 -0.08566267 -0.057159573 0.03104414 -0.010157434
-0.011125003 -0.0361943 0.17260878 -0.006315789 -0.024908744 -0.043354385 -0.032916356 0.0305671
0.032977793 0.016843792 -0.072874874 -0.00027037895 0.053511936 0.017576328 -0.049244285 -0.045181386
0.031195115 0.009609877 0.018018302 0.1924459 0.036537338 0.12088306 -0.09194715 0.012025172
00000000: 8d9e 033c 5b3d 8abc aae7 bfbd 2105 75bc
00000010: cb7e 403e 6c4e 30bd 2991 62bd cc37 d93c
00000020: 797a 6c3e 0f5d e53c 4bcf 88bd 26a3 893e
00000030: 0e0f 5ebd b861 ed3c 4619 5cbd 05fa 1a3b
00000040: b0e9 f8bc d38c a0bd 9035 e53c 5395 cd3a
00000050: 1e0a 67bd 4c40 9cbd 4fd4 68bd 935c 7ebd
00000060: eb12 02bd 7eef 1b3c c3b3 35bd 129a c73c
00000070: 8076 3d3e 4673 a23b 8348 99bd 4cb8 54bd
00000080: 8b95 7bbb 3cd6 44bb af30 233e 0ef7 73bd
00000090: 2390 00bc adc5 1f3c 1a48 76bd 0dc3 313e
000000a0: e959 78bc a078 3dbd b235 26bb f6ba f33a
000000b0: 4b1c 99bd 5bb0 04bd acf8 d33c fe97 063d
000000c0: 46ed d4bb 3ecc 03bd 7060 183c 3726 42bd
000000d0: bd43 71bd d569 15bc 15c8 5fbd bb59 63bc
000000e0: e4a9 fc3c 65ac 253e 4864 bcbd 5c54 4f3e
000000f0: 1c8a 173d 8120 52bb 31dc 81bd 9c49 5ebd
00000100: 137b 6e3d d765 b6bd cca4 e4ba e755 61bd
00000110: a078 4b3c fb61 d8bd f8f8 253d f81d 7f3b
00000120: 71fa bfbc 8a07 4cbd ea27 41bd f07e 96bd
00000130: d1b1 87bd 8257 a9bd ea54 a8bd 8ce7 933c
00000140: f2fb cd3d ca31 84bd 7834 31bd b86f 913e
00000150: e3d2 023d e041 bf3b 8c4b 5e3e b830 fa3c
00000160: 6d97 543b 4314 87bd 2df7 86bd 3f0b 19bc
00000170: b456 aebd 2835 cfbd 359c 3dbc 02e3 833c
00000180: 0d21 89bc 5ffa 083e 936f 973c 5aa8 41bd
00000190: 578c 9d3d 8666 6dbd 1bbc 9fbd 0197 f4bb
000001a0: 31dc a63d b1f0 40bc c30a 52bd 4114 2cbd
000001b0: ea2d 33bd dcab 1abd 49c5 93bd 883d 273b
000001c0: bfe1 37bb 092c 3fbd 7c78 e13d 2947 5bbb
000001d0: 65d2 b6bc d773 51bc 86d8 52bc bef2 903c
000001e0: 7cc1 3ebd e5b6 e3bc 8c14 8ebc c05c 2bbc
000001f0: f28d c73c 94a0 23bd 4224 ef3c 365b 52bd
00000200: d5cd 82bd d2df 353e 1fe2 183f 902c 06bd
00000210: 8883 98bd 5d88 003e b34b 5cbd 1e19 8bbd
00000220: 2fd4 b1bd 8c95 b7bc b741 963c 62b0 6ebc
00000230: 10b7 2f3c 94d9 5dbd af50 84bb b66a 8bbc
00000240: 5fca 97bd 5897 1fbd 3561 c7bd 3c4c bd3c
00000250: 9464 5f3d 4a7e 0fbd 8df3 58bd ff01 493d
00000260: 5951 f1bb e8f2 cf3c 4456 84bd 8c38 293e
00000270: 6b3e 18bd fa7c 253e 78f9 c0bd 3948 d03b
00000280: 74b8 2fbc 4d32 263e 5f8d e53c 991f 5fbd
00000290: 6584 09bd 570c c53c e054 8c3b dcbf b2bb
000002a0: 9e09 71bd dd36 0fbd f350 b03c f491 e9bc
000002b0: 323f 2f3e fb10 75bd fb5a b13a 8ca1 293b
000002c0: da7e b0bd 89b7 163f 1c76 95bb b1f7 5b3c
000002d0: 156a 14bd b419 90bd 5b44 57bd 8805 d9bb
000002e0: d080 c0bb 4f9a e4bc b480 c0bd 31b0 693e
000002f0: 9c2e 9dbd 0a54 133d b361 2c3d 11e9 93bc
00000300: 6c5e 573e 30ed 42bd a829 46bd 82eb 65bd
00000310: b31b 29bd 1db8 ffbc ff7f 213d 101c fabc
00000320: b0d4 3a3d c14c 213e 400d 9b3b 9263 15bd
00000330: 6410 053d 9261 3bbd 218b 46bd 04dd 48bc
00000340: fdcf 6ebd 85a2 743e 3961 18bd d62d 4dbc
00000350: 884d 89bd 737e 55bb 7ab5 043d 2d59 e63c
00000360: 540c 6cbd e43e a7bd 1cb2 e7bc fac4 93bd
00000370: 20cc b43b e6b2 70bd 5903 1dbb 42eb eebc
00000380: 5e85 babd 886e c7bd 5d7c 30bd 47b4 0d3d
00000390: e96f afbd 2820 6abd 4850 fe3c 5e6b 26bc
000003a0: a545 36bc 7940 14bd 5bc0 303e aef4 cebb
000003b0: 6c0d ccbc 5e94 31bd 4dd3 06bd db67 fa3c
000003c0: b913 073d fefb 893c 6c3f 95bd a6c1 8db9
000003d0: 552f 5b3d 3bfc 8f3c 60b4 49bd 1e10 39bd
000003e0: e68c ff3c bf72 1d3c 1e9b 933c 8a10 453e
000003f0: 2da8 153d 8a91 f73d ca4e bcbd 3a05 453c

q.net.4.weight f4 [1, 256]
0.025064483 0.022263182 -0.066513 -0.022351304 0.49890652 -0.055102736 0.05207613 -0.027597468
0.28711644 0.033487674 0.012388361 1.0673879 -0.016399201 -0.024086209 0.020506807 0.02647143
-0.028424965 -0.01694801 -0.0049957135 0.028634928 -0.035733648 0.023500662 -0.003693594 -0.004821339
0.02352793 -0.0034698884 0.043448586 0.033984564 0.23409227 0.026897525 0.0020814894 0.035311546
0.0051472136 -0.002166761 0.31378263 -0.00010488599 0.0073929257 -0.008086026 -0.01972096 1.6827271
0.00081231364 -0.008948748 0.029629366 -0.00014547055 0.007268399 0.0022392492 0.00096584513 -0.016251482
-0.010395202 0.033014752 0.022764565 -0.026797125 0.0039428654 -0.042628113 0.00411171 0.030597841
-0.040562466 0.24241659 0.03090257 0.45687482 -0.013284251 0.03080043 0.022208568 0.02572116
0.33942965 -0.018229106 0.00064723863 -0.0015548227 0.018265916 -0.1097582 0.04840185 0.00026068688
0.021792322 0.011988194 0.023691207 -0.0015213412 -0.010385232 0.058703262 0.030890193 0.02848446
0.27283698 0.012004448 -0.008150056 -1.4399945 -0.0024583314 -0.003628518 0.3397507 0.051425338
0.021665534 -0.03334646 0.002668998 -0.014391578 0.008356931 0.017851768 0.028648077 0.0185981
0.00053607806 0.28712815 0.012390721 0.060409598 0.2615197 0.05353097 0.029775672 -0.051076435
0.3347726 0.03167916 0.018749187 0.026656818 0.020777442 0.024233758 0.011260411 -0.006004021
-0.027869344 -0.015345006 0.24207757 0.017109467 0.02811823 0.027007198 -0.02653548 0.01677207
-0.0015632253 0.0041213525 -0.002844722 0.042656876 -0.02337292 0.023933752 0.02946746 0.013717818
-0.0029612284 0.28270632 0.8584864 -0.0041563273 -0.02384711 0.2718415 0.0037386199 -0.015545422
-0.024718665 -0.028200239 0.0044414303 0.051926002 0.015968435 0.007880539 -0.00070277054 -0.05908988
-0.015814636 -0.0038719636 0.00405999 -0.049437553 0.27436444 0.038900685 0.003679941 -0.0018941171
0.009700508 -0.032353133 0.031442564 0.2594771 -0.028282247 0.34791327 0.004866406 -0.013020188
0.030642124 -0.917826 0.016313119 -0.0044826237 0.012366083 -0.0060278773 0.004559529 0.0016733867
0.02820936 0.018669676 0.028616725 -0.016827732 0.37168384 0.02417575 -0.015925305 -0.018088534
0.023120072 0.92181677 -0.056091417 0.44699278 -0.003077904 0.018697694 0.009665318 0.020121472
0.037633397 1.3105288 -0.020550163 -1.0821297 -0.03505766 0.0033325693 0.014054623 -0.01669621
0.34524578 0.030786688 -0.0017799971 0.0057576615 -0.0041908696 0.015689531 -4.3645738e-05 0.049398072
-0.034149032 0.2398419 -0.004222147 -0.011385792 -0.0034644639 0.04206686 0.0009002744 -0.017677534
0.04920533 0.3213774 -0.0009883506 -0.022749186 0.046722118 -0.0034285896 -0.01958222 0.0013203378
0.01949756 -0.011253362 -0.019775368 -0.004835388 0.0005465491 -0.03009226 0.047888134 -0.006095347
-0.01388233 2.0915043 0.021512846 0.0044704904 -0.010711991 -0.047897264 -0.038509265 -0.01117269
0.02037386 -0.017144687 0.37043765 0.025580822 -0.054524537 -0.02054988 0.023893187 0.01308344
1.1966465 0.01392685 0.0019232129 0.012104768 1.11508 -0.0047323713 0.008677575 -0.009040327
0.26518577 7.4229014e-05 0.019494567 0.5918922 0.030127391 0.24993281 0.00987859 0.022153718
00000000: 0854 cd3c 4761 b63c f837 88bd 151a b7bc
00000010: ad70 ff3e 68b3 61bd c84d 553d 1614 e2bc
00000020: ed00 933e 5f2a 093d 8df8 4a3c 2ba0 883f
00000030: 9e57 86bc 7150 c5bc e4fd a73c 9dda d83c
00000040: 79db e8bc 8ed6 8abc 15b3 a3bb cc93 ea3c
00000050: 725d 12bd 7684 c03c 3910 72bb 53fc 9dbb
00000060: a5bd c03c 1167 63bb 25f7 313d 6633 0b3d
00000070: e2b5 6f3e 3358 dc3c 9969 083b d7a2 103d
00000080: f5a9 a83b 3800 0ebb 1ea8 a03e 3df6 dbb8
00000090: 5b40 f23b 407b 04bc da8d a1bc 9a63 d73f
000000a0: 72f1 543a c59d 12bc 49b9 f23c 7489 18b9
000000b0: c02b ee3b 5ec0 123b c530 7d3a d421 85bc
000000c0: a350 2abc 7a3a 073d c17c ba3c a585 dbbc
000000d0: 2733 813b d19a 2ebd 86bb 863b 53a8 fa3c
000000e0: d424 26bd 0e3c 783e 6327 fd3c 7feb e93e
000000f0: 30a6 59bc 2f51 fc3c beee b53c 2fb5 d23c
00000100: b9c9 ad3e 3555 95bc 73ab 293a 31cb cbba
00000110: 67a2 953c e8c8 e0bd 0541 463d cdac 8839
00000120: d085 b23c 216a 443c 1014 c23c bd67 c7ba
00000130: d226 2abc d572 703d 6e0d fd3c 3e58 e93c
00000140: 4ab1 8b3e 4eae 443c d087 05bc bd51 b8bf
00000150: f51b 21bb 6ecc 6dbb cef3 ad3e 60a3 523d
00000160: eb7b b13c 4c96 08bd 5bea 2e3b a7ca 6bbc
00000170: 82eb 083c df3d 923c 5faf ea3c 0b5b 983c
00000180: 9787 0c3a 7602 933e 7302 4b3c 0e70 773d
00000190: e9e5 853e 4a43 5b3d 1cec f33c 8635 51bd
000001a0: 5067 ab3e 02c2 013d e597 993c 665f da3c
000001b0: 7435 aa3c e085 c63c 967d 383c 61bd c4bb
000001c0: 404e e4bc 9f69 7bbc 2fe3 773e 2729 8c3c
000001d0: 3458 e63c 333e dd3c ef60 d9bc 9565 893c
000001e0: 23e5 ccba 690c 873b 846e 3abb fab8 2e3d
000001f0: 9178 bfbc b710 c43c be65 f13c b3c0 603c
00000200: 2b11 42bb e2be 903e c4c5 5b3f cd31 88bb
00000210: 045b c3bc cf2e 8b3e a203 753b 3ab2 7ebc
00000220: cc7e cabc 3004 e7bc 6b89 913b 5cb0 543d
00000230: 3cd0 823c 601d 013c 223a 38ba 3b08 72bd
00000240: b28d 81bc c5c0 7dbb aa09 853b 087f 4abd
00000250: 7f79 8c3e 5356 1f3d 2a2b 713b 0644 f8ba
00000260: e1ee 1e3c b884 04bd ebc9 003d 2fda 843e
00000270: 2cb0 e7bc b021 b23e 5f76 9f3b a052 55bc
00000280: 3105 fb3c a5f6 6abf 17a3 853c f9e2 92bb
00000290: 1d9b 4a3c 8085 c5bb 1a68 953b 8a55 db3a
000002a0: 5117 e73c 26f1 983c 9f6d ea3c 50da 89bc
000002b0: 584d be3e 390c c63c c975 82bc 682e 94bc
000002c0: 4e66 bd3c 2ffc 6b3f 1dc0 65bd 3ddc e43e
000002d0: a9b6 49bb e82b 993c 485b 1e3c c9d5 a43c
000002e0: 7a25 1a3d 68bf a73f d158 a8bc 3a83 8abf
000002f0: 9f98 0fbd 3c67 5a3b 5d45 663c 7dc6 88bc
00000300: 0ec4 b03e 5d34 fc3c cb4e e9ba c4aa bc3b
00000310: 9053 89bb 5587 803c 4110 37b8 a255 4a3d
00000320: dbdf 0bbd 1d99 753e f059 8abb 798b 3abc
00000330: 0f0c 63bb 4d4e 2c3d 6400 6c3a 7ad0 90bc
00000340: 878b 493d 948b a43e 8b8b 81ba 805c babc
00000350: b15f 3f3d 30b2 60bb e46a a0bc 2f0f ad3a
00000360: 59b9 9f3c 0560 38bc f4ff a1bc 2d72 9ebb
00000370: 4a46 0f3a 0b84 f6bc 5926 443d 7abb c7bb
00000380: b672 63bc 35db 0540 b53b b03c 317d 923b
00000390: 5981 2fbc ec2f 44bd e4bb 1dbd a90d 37bc
000003a0: 15e7 a63c 0473 8cbc 01aa bd3e df8e d13c
000003b0: 1f55 5fbd 3958 a8bc a5bb c33c ed5b 563c
000003c0: b62b 993f 712d 643c 5114 fc3a 1453 463c
000003d0: f1ba 8e3f 0212 9bbb 632c 0e3c e11d 14bc
000003e0: 6ec6 873e 66ab 9b38 12b3 9f3c 3f86 173f
000003f0: b8cd f63c 63ee 7f3e cfd9 213c b77b b53c
